model_basic.pt (torch, 161584 bytes, 2 tensors)

fc.weight f4 [2, 20000]
000000 4c 7c a0 bd 73 5b 22 be 8f 7a cd 3d 32 cf 4e 3d
       -0.07836208 -0.15855198 0.10033142 0.050490566
000010 31 bd 76 be 6c 1a 5c be 5e ce 84 bd 90 da fa 3c
       -0.24095608 -0.21494454 -0.06484674 0.030621797
000020 4a 1d 97 3e 76 c9 68 3c 02 4b 89 bd 8c 80 73 3e
       0.29514533 0.014208188 -0.0670376 0.23779505
000030 ea 71 ca bb 1b ad 88 be fc 32 c1 be 6f 2e 8f 3c
       -0.0061781304 -0.2669457 -0.3773421 0.017478196
000040 1b b1 31 3e 07 a6 c8 3d 24 dc c5 bc d1 51 11 bd
       0.17352717 0.09797292 -0.024152823 -0.035478417
000050 3f 6d b6 3b 09 c3 02 bd 28 79 48 be 62 71 47 be
       0.0055672224 -0.03192428 -0.19577467 -0.19476846
000060 0d 6a 21 3c 11 08 93 be 75 65 8a 3d 3b 80 23 3e
       0.009851945 -0.28717092 0.06757633 0.15966885
000070 39 87 9f be 40 18 31 3e 09 4c 6a 3c e9 cd c1 bd
       -0.31157854 0.17294407 0.014300355 -0.09463102
000080 07 a6 50 3e 6c 65 b3 3c 2d bd 14 3d aa 3f b5 bd
       0.20375834 0.021898948 0.036313225 -0.088500336
000090 c3 e7 4d bd 54 e2 14 3e d0 a4 39 be 8f 1a f6 bd
       -0.050269853 0.14539462 -0.18129277 -0.120167844
0000a0 4f 83 e1 3d f3 a4 eb bd c6 d1 21 be ac b7 5b 3e
       0.11011373 -0.11506071 -0.15802678 0.21456784
0000b0 3d 7c d5 bd cd 34 40 3e a2 b0 22 be 2b a1 ed bd
       -0.10424087 0.18770142 -0.15887693 -0.11603006
0000c0 d7 07 ac 3d 22 52 ae 3d 17 4f 9b bd ae 38 e6 ba
       0.08399933 0.08511759 -0.075834446 -0.0017564499
0000d0 69 60 0a be 8e 2f 18 be 38 d2 f8 bd 6f f3 88 3d
       -0.1351334 -0.1486189 -0.12149471 0.06687056
0000e0 f7 74 8c be 8d c4 6a 3d 69 19 2a 3d 60 db c0 3c
       -0.27432987 0.05731635 0.04152814 0.023542106
0000f0 44 66 15 be be dd 82 bd 90 7b 67 be 44 03 95 3e
       -0.14589792 -0.0638995 -0.22605729 0.29104054
000100 e8 b1 d0 ba 09 2b 1d 3e 4b 5c 78 3e 20 53 3f be
       -0.0015922161 0.15348448 0.24253957 -0.18684053
000110 b8 ff d3 bc d0 89 95 be ea 46 9e ba 7a 1b 8f 3c
       -0.025878772 -0.29206705 -0.0012075577 0.017469157
000120 2a 5d 23 be 08 4b 84 3d ca 68 05 3e 7d 15 4c 3e
       -0.15953508 0.064596236 0.13028255 0.19930072
000130 75 48 c3 3e 8d b7 9f 3d 8c e3 87 3d 54 cb 36 3e
       0.38141218 0.077986814 0.06635198 0.17851001
000140 7f bf 6e 3c bb 7f 2f be e3 35 85 be 53 01 1e 3c
       0.014572023 -0.17138569 -0.26017675 0.00964387
000150 1f e0 66 3e 38 93 9c 3d 1e a3 1f 3d 02 bc 86 be
       0.22546433 0.07645267 0.03897392 -0.26315314
000160 8b b5 51 be cb 17 ba 3b 1d a0 22 ba fc e3 c6 3c
       -0.2047941 0.005679106 -0.00062036683 0.024278633
000170 7a 3c 32 bd cb d6 58 be ef 73 1f be 52 f9 46 3e
       -0.043514706 -0.21175687 -0.15571569 0.19431046
000180 5c 59 95 3b 9e 5d 18 3e a5 7f 48 3e 60 73 68 be
       0.0045577716 0.14879462 0.19579943 -0.22700262
000190 b6 ab 27 3e a1 59 04 be fe fb 03 3e 3d 46 bb bd
       0.16374096 -0.12924816 0.12889096 -0.09144256
0001a0 79 0a f3 bc 30 11 db 3d 8f f1 a7 bd e4 f4 4c 3d
       -0.02966808 0.10696638 -0.082003705 0.050038233
0001b0 1f 91 9e 3d 7e 7f 10 3f 9b fd f6 bd dc bd f0 3b
       0.077425234 0.5644454 -0.1206009 0.0073468518
0001c0 6a 99 00 be 95 5d 61 bd a1 a4 68 be 2b f6 29 3c
       -0.12558523 -0.055020887 -0.22719051 0.010373632
0001d0 b0 70 81 bd 2a 0c 48 3e 94 36 2b be ad 54 1c be
       -0.063203216 0.1953589 -0.16720039 -0.15266676
0001e0 fc ff bf bd 2a ca 63 be 85 47 87 be 23 3f 71 be
       -0.09374997 -0.22245088 -0.26421753 -0.23559241
0001f0 c3 8c af bd a6 cc 62 3d eb 36 74 3e 9a dc e7 bd
       -0.0857177 0.05537095 0.23849075 -0.11321373
000200 86 da 29 be 71 75 6a bc 60 0e 15 3d 9c 51 d2 3c
       -0.16587266 -0.014310227 0.036390662 0.02567368
000210 a5 50 9d be bd 71 9e bd 65 bd 8b bc cb b5 0d bd
       -0.3072559 -0.077365376 -0.017058084 -0.0345972
000220 ff f4 97 be 17 a5 34 be 53 96 f1 bd cf 74 b7 bd
       -0.29679105 -0.17641102 -0.1179625 -0.08957826
000230 74 e1 52 3e 4d 10 16 be 89 c4 ac bd 83 d4 51 3d
       0.20593816 -0.14654656 -0.084359236 0.051228058
000240 70 9b e5 3d 9d bb 4c bc 18 26 43 be d7 e9 67 bd
       0.11211288 -0.012495902 -0.190575 -0.05661949
000250 09 16 6f be 6c 95 24 3d 4f e9 73 bc bb f2 2b be
       -0.2334825 0.040181562 -0.014887168 -0.16791813
000260 23 47 06 be 00 dc 3a bd 1e 39 76 bd 49 6f 6b be
       -0.13113074 -0.045619965 -0.060113065 -0.2299167
000270 71 e9 56 3e 19 0e cf bd e9 90 b3 3d 38 1b c3 be
       0.20987488 -0.10110111 0.08767874 -0.38106704
000280 d6 61 99 3d e7 85 5a bd f4 70 30 be ff 92 eb be
       0.07489364 -0.053350355 -0.17230588 -0.46010587
000290 9a 4d de bd f6 17 29 3e 3b 07 95 3d 12 1e 02 be
       -0.10854645 0.16513047 0.0727677 -0.12706783
0002a0 45 7d 0e 3e 9d 49 67 3d 58 d3 c1 be 93 6c 49 bd
       0.13914974 0.056466687 -0.37856555 -0.04917581
0002b0 6a 29 e4 bd 35 65 85 bb e5 25 6c 3d 72 d7 47 be
       -0.111407116 -0.0040709027 0.057653327 -0.1951578
0002c0 56 eb 54 3d a1 1d 27 3d b2 1a 86 bd ca e9 d7 bd
       0.051982246 0.04079974 -0.065480605 -0.105426386
0002d0 bd 1a c8 3c 36 70 96 be 11 75 22 be 50 05 be be
       0.024426812 -0.29382485 -0.1586497 -0.37113428
0002e0 c6 3a 02 3e 33 b7 c6 be d2 ec 8d bd 7e 02 52 3e
       0.12717733 -0.38811645 -0.069299355 0.20508763
0002f0 11 03 7f be ee 1a 5d bd bd 0c 96 3d 05 82 50 bc
       -0.24903513 -0.05398076 0.073266484 -0.012726312
000300 cb 72 a9 bd 0c a0 64 be fc d9 d6 3e d7 84 de bc
       -0.08273848 -0.22326678 0.41963184 -0.027162952
000310 3a a6 30 be 39 38 44 bd 45 8e 12 be de ee 61 bb
       -0.1725091 -0.04790518 -0.14312084 -0.0034474651
000320 e6 d5 ef 3d cb 85 81 be 20 82 8a 3d 5b 52 68 bc
       0.1171072 -0.25297388 0.067631006 -0.014179791
000330 f2 a6 cf 3d e2 16 8f be e3 93 e7 3d ea 6d 1a be
       0.10139264 -0.27947146 0.11307504 -0.15080991
000340 32 75 d9 be 7d 13 c7 3d 3b 0e 90 3d 24 b4 8e be
       -0.42472225 0.09720514 0.07033964 -0.2787181
000350 36 2f 8a 3d b9 0a 69 3c 4e 59 8e bd 67 fa 6e bc
       0.06747286 0.014223748 -0.06950627 -0.014586068
000360 37 cb 1d bd 6c 41 e0 bc 72 cb 74 be 16 57 ef 3e
       -0.03852388 -0.027374946 -0.23905733 0.4674613
000370 42 f9 13 3f 73 f7 84 3e ea 82 f7 3e 08 3e a7 3e
       0.5780221 0.2597004 0.48342067 0.32664514
000380 e9 a3 94 3e 73 31 95 3e 31 19 18 3f 90 80 8f 3e
       0.29031304 0.2913929 0.5941344 0.28027773
000390 27 b0 c7 3e c8 86 b8 3e b8 38 af 3e 25 85 c4 3e
       0.3900158 0.3604033 0.3422296 0.3838283
0003a0 78 d4 db 3e 47 15 7a 3e 5d eb 90 3e 93 51 a0 3e
       0.42935538 0.24422179 0.28304568 0.31312236
0003b0 de 02 87 3e 0b 66 15 3e 5d 6c 86 3e 70 f4 90 3e
       0.26369375 0.14589708 0.2625455 0.2831149
0003c0 89 fb 39 3f 55 2e 82 3e f5 e5 87 3e 71 ff f1 3e
       0.7264944 0.25425974 0.2654263 0.472652
0003d0 67 1d ea 3e 17 25 b2 3e 37 3f 69 3e 89 be 34 3f
       0.45725557 0.34793922 0.22778021 0.70603234
0003e0 5b d9 00 3f 49 6b a8 3e 74 65 13 3f 56 65 c5 3e
       0.5033166 0.32894352 0.5757668 0.38553876
0003f0 f0 13 97 3e d3 df d1 3e e1 69 be 3e 67 29 8f 3e
       0.295074 0.40991077 0.37190154 0.27961275

fc.bias f4 [2]
000000 14 ea 03 3e 86 5c 07 be
       0.12882262 -0.13218889
